082_MediaPipe_Meet_Segmentation/segm_lite_v509.tflite (tflite, 407472 bytes, 109 tensors)

conv2d/Kernel f2 [16, 3, 3, 3]
000000 cc 40 5b 40 fc 3f 75 43 e4 42 7c 42 73 40 12 40
       2.398 2.178 1.996 3.729 3.445 3.242 2.225 2.035
000010 ce 3f 00 af 40 af ec b0 78 30 57 32 18 30 35 aa
       1.951 -0.1094 -0.1133 -0.1538 0.1396 0.1981 0.1279 -0.0485
000020 d4 24 bb 27 25 c1 fa c0 ce c0 27 c3 a6 c2 7f c2
       0.01886 0.0302 -2.572 -2.488 -2.402 -3.576 -3.324 -3.248
000030 77 c0 cc bf 4c bf 99 a5 0e 34 03 30 76 2f a0 37
       -2.232 -1.949 -1.824 -0.02187 0.2534 0.1254 0.1166 0.4766
000040 27 35 e5 32 ee 34 a2 32 3e 2c ec 36 dd 34 41 ae
       0.322 0.2155 0.308 0.2073 0.0663 0.4326 0.304 -0.0977
000050 06 37 fd 33 8d 2c 3a 33 db 30 5d 34 b7 34 1c 35
       0.439 0.2496 0.0711 0.2258 0.1517 0.2727 0.2947 0.3193
000060 a0 1f 54 31 86 30 a6 a4 b9 a5 32 29 90 3c fd 39
       0.007446 0.1665 0.1414 -0.01816 -0.02235 0.0406 1.141 0.7485
000070 38 3b 29 39 0b aa f8 32 43 a9 41 b2 85 b5 be 38
       0.9023 0.645 -0.0472 0.2178 -0.0411 -0.1954 -0.345 0.593
000080 93 34 f3 39 9e 36 f0 b2 fa 34 cd 38 87 36 b8 35
       0.286 0.7437 0.4136 -0.2168 0.311 0.6 0.408 0.3574
000090 8d bc e5 b8 61 b8 30 b9 c1 b5 20 b5 d7 32 9f 37
       -1.138 -0.612 -0.5474 -0.6484 -0.3596 -0.3203 0.2137 0.4763
0000a0 1d 34 40 bc a6 35 54 39 75 be 7e 38 7e 3b 74 b9
       0.257 -1.0625 0.353 0.666 -1.614 0.5615 0.9365 -0.6816
0000b0 05 35 2d 39 22 be 08 3a c8 3c 11 c1 0d 3c fc 3e
       0.3137 0.647 -1.533 0.754 1.195 -2.533 1.013 1.746
0000c0 4c bc 82 38 6e 3c d3 b9 2a 34 38 38 91 bd e8 30
       -1.074 0.5635 1.107 -0.728 0.2603 0.5273 -1.392 0.1533
0000d0 b6 39 f2 b9 8d 2e 8b 37 16 bc 38 3c 34 38 01 be
       0.714 -0.743 0.10236 0.4714 -1.021 1.055 0.5254 -1.501
0000e0 d0 3d fe 37 a7 b8 e1 36 9c ae 32 c0 ca 3c 28 38
       1.453 0.4995 -0.5815 0.43 -0.1033 -2.098 1.197 0.5195
0000f0 4b c3 bf 3d 6f 36 43 bd bf 38 7b 33 47 ba 0a 36
       -3.646 1.437 0.402 -1.315 0.5933 0.2338 -0.7847 0.3774
000100 e6 34 30 be 78 37 7e 35 fd b0 18 35 96 37 93 36
       0.3062 -1.547 0.4668 0.3433 -0.1559 0.3184 0.474 0.411
000110 d3 39 04 bb 8b 38 13 3c 2b bf b8 36 eb 34 69 b9
       0.728 -0.877 0.568 1.019 -1.792 0.42 0.3074 -0.6763
000120 ee 3a ef 3c bc be 52 3d 05 40 eb c1 35 3a fc 39
       0.866 1.233 -1.684 1.33 2.01 -2.959 0.776 0.748
000130 d9 bc 63 36 65 35 13 bc 95 39 42 39 8c be d9 35
       -1.212 0.3992 0.3372 -1.019 0.6978 0.657 -1.637 0.3655
000140 72 30 85 b9 22 3f e6 3e 6a 3e 78 c2 02 c2 1e c2
       0.1389 -0.69 1.783 1.725 1.604 -3.234 -3.004 -3.059
000150 70 31 16 33 c8 2f 08 44 c9 43 93 43 41 c4 04 c4
       0.1699 0.2214 0.1216 4.03 3.893 3.787 -4.254 -4.016
000160 a0 c3 02 b7 7c b3 48 b5 75 42 d3 41 00 42 4f bf
       -3.812 -0.438 -0.2339 -0.33 3.229 2.912 3.0 -1.827
000170 3a bf ad bd da 2d 52 34 87 34 b8 3b 81 38 8c 3b
       -1.807 -1.419 0.09143 0.27 0.283 0.965 0.563 0.9434
000180 c0 32 71 ae 8e 3c b0 39 5b 2e 76 35 16 b7 b5 b8
       0.2109 -0.10065 1.139 0.711 0.0993 0.3413 -0.4429 -0.5884
000190 12 3a 6d c1 85 c1 c0 ad 4d b0 51 b8 f1 35 4b b4
       0.759 -2.713 -2.76 -0.08984 -0.1344 -0.5396 0.3713 -0.2683
0001a0 bd ac 44 39 4f be be bc b9 31 0f 38 97 35 77 39
       -0.07404 0.658 -1.577 -1.186 0.1788 0.5073 0.3494 0.683
0001b0 4c c1 fb c0 90 c0 af bc 8f bc a9 bd 3b 41 64 40
       -2.648 -2.49 -2.281 -1.171 -1.14 -1.415 2.615 2.195
0001c0 fd 3e 43 c4 d2 c3 d7 c2 99 bb 2b ba 65 b8 95 45
       1.747 -4.26 -3.91 -3.42 -0.9497 -0.771 -0.5493 5.582
0001d0 03 45 be 44 fd c0 60 c0 19 bf 3b b4 ac 27 99 35
       5.01 4.742 -2.494 -2.188 -1.774 -0.2644 0.02997 0.3499
0001e0 67 42 e4 41 6a 41 da 38 c8 bb 67 b2 97 3e f6 bc
       3.201 2.945 2.707 0.6064 -0.9727 -0.2001 1.647 -1.24
0001f0 ab 9d d9 37 2a b9 91 27 fe 3d 0a bc 2e b3 33 42
       -0.005535 0.4905 -0.6455 0.02956 1.498 -1.01 -0.2244 3.1

conv2d/Bias f2 [16]
000000 3b 3d 65 c0 0e be b4 40 e8 41 29 b4 b9 2d da 3e
       1.308 -2.197 -1.514 2.352 2.953 -0.26 0.0894 1.713
000010 0f ac ea ba 72 32 21 41 a4 41 5a 40 72 b2 1e 41
       -0.0634 -0.8643 0.2014 2.564 2.82 2.176 -0.2014 2.559

conv2d_1/Kernel f2 [16, 1, 1, 16]
000000 31 3d 45 ac 68 32 a5 21 5c 11 25 aa bd 29 44 31
       1.298 -0.0667 0.2002 0.011024 0.000654 -0.048 0.04483 0.1646
000010 b6 ac 6d a7 a2 27 4e a1 34 9d 5c aa 1c a6 42 ac
       -0.0736 -0.029 0.02982 -0.01036 -0.00508 -0.04968 -0.02386 -0.0665
000020 8f 2c ed 36 1e 35 23 28 a5 2f 25 30 08 b4 3b 31
       0.0712 0.4329 0.3198 0.03232 0.11945 0.1295 -0.252 0.1635
000030 34 b0 e2 30 e8 b1 3c 2c af 2c 7f 34 65 32 c4 1f
       -0.1313 0.1526 -0.1846 0.06616 0.0732 0.281 0.1998 0.007584
000040 76 aa 04 b5 1c 37 06 bc df b5 3a b8 39 a5 b5 34
       -0.05048 -0.3135 0.4443 -1.006 -0.367 -0.5283 -0.0204 0.2942
000050 fc 27 95 39 b6 a6 61 a8 97 2b 03 b0 cb a8 89 34
       0.03119 0.6978 -0.02621 -0.0342 0.0593 -0.1254 -0.03745 0.2834
000060 ec 1f 22 b1 cf ac 12 ad 49 2c c4 a5 44 22 1c 25
       0.007736 -0.1604 -0.07513 -0.0792 0.06696 -0.02252 0.01224 0.01996
000070 4c 1d e2 aa d9 16 81 30 4d 32 2d 2b 81 a4 ea 21
       0.005173 -0.05377 0.001672 0.1407 0.1969 0.05606 -0.0176 0.01155
000080 73 b7 78 9d 58 ac 81 a2 57 1a bd 1d a1 97 7f aa
       -0.4656 -0.00534 -0.0679 -0.0127 0.003096 0.005604 -0.001863 -0.05075
000090 13 26 b8 94 7b 1b 91 23 29 22 b5 a6 a5 1f 56 24
       0.02373 -0.001152 0.003653 0.01478 0.01203 -0.0262 0.007465 0.01694
0000a0 89 a3 b0 2d 28 2e 5a a7 f2 29 fa a4 6f 2b ed 1d
       -0.01472 0.08887 0.0962 -0.02872 0.04645 -0.01944 0.05807 0.005787
0000b0 e9 20 3d 94 6c 26 6f 30 dc 2e eb 29 a9 a2 cf 9a
       0.00959 -0.001035 0.02509 0.1385 0.1072 0.04623 -0.01301 -0.003325
0000c0 8f 19 0a 29 36 28 07 34 b1 30 96 27 be 93 b8 aa
       0.002714 0.03937 0.0329 0.2517 0.1466 0.02963 -0.000945 -0.0525
0000d0 d9 9f 2b b2 1c 25 a7 24 6a 0c 9f 2b 5b 9c b4 2a
       -0.007664 -0.1927 0.01996 0.01817 0.0002694 0.05954 -0.004253 0.05237
0000e0 6d 23 d0 2c b7 aa e4 3c a4 39 d1 b5 95 a8 2a b2
       0.0145 0.0752 -0.05246 1.223 0.705 -0.3635 -0.0358 -0.1926
0000f0 4c 9c 34 b8 4b 2b c1 b4 01 2f 60 2f 33 23 d6 36
       -0.004196 -0.5254 0.05698 -0.297 0.10944 0.11523 0.01406 0.4272
000100 d1 a8 b3 97 90 34 81 ad 0f 2d 64 ae ab 31 94 ad
       -0.03763 -0.00188 0.2852 -0.086 0.07904 -0.09985 0.1771 -0.08716
000110 75 ac 21 ad 63 34 ba 33 ec 34 e6 b4 cc b5 25 a5
       -0.06964 -0.08014 0.2742 0.2415 0.3076 -0.3062 -0.3623 -0.0201
000120 32 ac ba 37 bb 32 01 2a b5 2b 14 37 19 36 f4 36
       -0.06555 0.483 0.2103 0.0469 0.0602 0.4424 0.381 0.4346
000130 0b 33 c2 36 10 36 5b 38 fd 28 ee af 21 ad fd 31
       0.2201 0.4224 0.379 0.5444 0.03897 -0.1239 -0.08014 0.1871
000140 85 2b 71 b0 aa b4 ab a9 4f a8 37 a1 9e ae e7 9e
       0.05875 -0.1388 -0.2915 -0.04428 -0.03366 -0.010185 -0.1034 -0.00674
000150 b1 a8 34 a9 5f ac 1b 28 26 a7 3c 30 2b 26 d6 28
       -0.03665 -0.04065 -0.0683 0.03207 -0.02792 0.1323 0.0241 0.03778
000160 27 26 93 ac 04 2e 24 23 ad 2b da b4 f8 1d ba af
       0.02403 -0.0715 0.094 0.01395 0.05997 -0.3032 0.00583 -0.1207
000170 c1 9a f0 b0 c1 23 08 ac c8 9d 51 23 01 a5 ce 33
       -0.003298 -0.1543 0.015144 -0.063 -0.005646 0.01429 -0.01955 0.2439
000180 91 1d 35 32 e9 31 55 b9 65 b1 24 2c bc a1 ee b0
       0.005436 0.194 0.1847 -0.6665 -0.1686 0.0647 -0.0112 -0.154
000190 0f a5 7c 25 71 a6 67 32 74 30 02 2f 7f a9 f9 a9
       -0.01976 0.02142 -0.02516 0.2001 0.1392 0.1095 -0.04294 -0.04666
0001a0 49 22 0f b1 63 ad 7f a4 2b 25 bc 98 6f a9 bf 1f
       0.012276 -0.1581 -0.08417 -0.01756 0.02019 -0.002312 -0.04245 0.007565
0001b0 2f a7 21 a2 fe a4 22 2c fb 2e 95 32 06 28 09 1d
       -0.02806 -0.01197 -0.0195 0.0646 0.1091 0.2057 0.03143 0.004917
0001c0 51 28 f6 a5 98 aa 85 b0 e7 a9 12 24 79 9d 5d 20
       0.03372 -0.02328 -0.0515 -0.1412 -0.0461 0.0159 -0.005344 0.00852
0001d0 a5 a2 14 21 d4 0b 3e 2a 2a ae f6 28 fe 99 f2 b3
       -0.01298 0.00992 0.0002389 0.04877 -0.0963 0.03876 -0.002926 -0.2483
0001e0 d7 22 f7 b0 71 a3 75 a7 f1 27 ef a0 3b 99 af 1d
       0.01336 -0.1552 -0.014534 -0.02913 0.03102 -0.009636 -0.002554 0.00555
0001f0 0e a1 c0 a7 f0 92 f5 2d b0 30 2d 31 71 a1 98 1d
       -0.00987 -0.03027 -0.000847 0.0931 0.1465 0.1617 -0.01063 0.005463

conv2d_1/Bias f2 [16]
000000 a5 bc d1 a8 45 42 db 3b 4d 3d d4 3a 07 30 f3 c3
       -1.161 -0.03763 3.135 0.982 1.325 0.8535 0.1259 -3.975
000010 6c 36 ee ba 3d 3d d4 38 fc 3e e1 3a e6 3e ef 3b
       0.4014 -0.866 1.31 0.6035 1.746 0.86 1.725 0.9917

depthwise_conv2d/Kernel f2 [1, 3, 3, 16]
000000 0f ab 5d 31 27 2d 4d 3d bd 2e f0 b7 50 b4 c7 2c
       -0.05515 0.1676 0.0805 1.325 0.1053 -0.496 -0.2695 0.07465
000010 b9 35 a8 2d 65 35 15 b2 2f ac f6 40 db af 06 bf
       0.3577 0.0884 0.3372 -0.1901 -0.06537 2.48 -0.12274 -1.756
000020 55 ac f7 2e 5a 2d 21 3f f2 30 03 a9 40 b5 1a 2d
       -0.0677 0.1088 0.0836 1.782 0.1545 -0.03915 -0.3281 0.0797
000030 61 b6 bc 2b 0f 30 ee b2 98 ac 3a c4 98 b0 34 38
       -0.3987 0.06042 0.1268 -0.2166 -0.0718 -4.227 -0.1436 0.5254
000040 ca a2 84 1b 41 27 c3 a0 50 24 9c 30 03 aa f2 25
       -0.01326 0.00367 0.02834 -0.0093 0.01685 0.144 -0.04697 0.02322
000050 7d 2f 70 25 69 aa 92 a8 b7 a4 4f 3e 32 a8 7f 3c
       0.117 0.02124 -0.05008 -0.0357 -0.01842 1.577 -0.03278 1.124
000060 f8 ac a1 32 48 2e da b4 52 31 0b b8 ce b5 e6 2d
       -0.07764 0.2072 0.09814 -0.3032 0.1663 -0.5054 -0.3628 0.09216
000070 dc 39 0a 2e 9c 34 2c b4 18 ad 75 46 fe b0 77 c1
       0.7324 0.09436 0.288 -0.2607 -0.0796 6.457 -0.156 -2.732
000080 f3 ad 57 32 d8 2e ca b4 48 33 75 ba 21 b7 b1 2e
       -0.09296 0.1981 0.10693 -0.2993 0.2275 -0.807 -0.4456 0.10455
000090 10 b9 67 2d d2 35 ec b4 d4 ad 6a c6 1d b2 17 39
       -0.633 0.0844 0.3638 -0.3076 -0.09106 -6.414 -0.191 0.636
0000a0 c5 a5 23 24 66 28 a6 b3 1d 29 57 b0 db ad c8 27
       -0.02254 0.01616 0.03436 -0.239 0.03995 -0.1356 -0.0915 0.0304
0000b0 ac a9 27 24 cc 28 59 ac 2c a5 42 33 42 aa a4 40
       -0.0443 0.01622 0.03748 -0.06793 -0.0202 0.2268 -0.0489 2.32
0000c0 43 a9 87 2c 06 2a f3 bb bd 2e ca 30 41 ad c1 28
       -0.0411 0.07074 0.04706 -0.9937 0.1053 0.1497 -0.0821 0.03714
0000d0 d5 35 ef 28 e1 a8 33 af b8 a6 61 40 2f ac d0 b6
       0.3645 0.03854 -0.03812 -0.1125 -0.02625 2.19 -0.06537 -0.4258
0000e0 05 aa a6 2e 95 2a 9a bd 19 30 07 b2 a1 af 6c 29
       -0.04703 0.1039 0.05142 -1.4 0.128 -0.1884 -0.1192 0.04236
0000f0 e7 b3 b7 28 b3 2a 3b b0 0b a8 ac c1 d0 ac d2 36
       -0.247 0.03683 0.05234 -0.1322 -0.0316 -2.836 -0.0752 0.4263
000100 61 9d e0 26 de 24 f9 31 28 23 27 ac 13 28 1d 22
       -0.005253 0.02686 0.01901 0.1866 0.01398 -0.0649 0.03183 0.01194
000110 5d ac a4 24 58 25 02 9c 89 94 3b 38 af 9e a9 aa
       -0.0682 0.01813 0.02087 -0.003914 -0.001107 0.529 -0.006527 -0.05203

depthwise_conv2d/Bias f2 [16]
000000 bc 3b 4d a1 86 9e 54 33 d9 22 e3 42 5f 41 89 a5
       0.967 -0.01035 -0.00637 0.229 0.013374 3.443 2.686 -0.02162
000010 4f a7 0d 39 5b 2e ed 3d 4b 3e c7 36 4c 3e 34 38
       -0.02855 0.6313 0.0993 1.481 1.573 0.4236 1.574 0.5254

dense/Kernel f2 [16, 16]
000000 9b b8 23 30 d1 33 94 34 46 ab e0 30 83 bc d8 b8
       -0.5757 0.1293 0.2443 0.2861 -0.05682 0.1523 -1.128 -0.6055
000010 0a af d6 39 5a 29 1f 36 d2 a9 53 a8 48 3c 0b 30
       -0.11 0.7295 0.0418 0.3826 -0.04547 -0.03378 1.07 0.1263
000020 e0 b8 64 b5 16 ad e0 9d eb ad fb b3 47 9e 97 b6
       -0.6094 -0.337 -0.07947 -0.005737 -0.09247 -0.2494 -0.00613 -0.4119
000030 19 b4 1e a5 0f 28 2b 2c 7c b3 24 b8 6d b8 8d 35
       -0.256 -0.01999 0.0317 0.0651 -0.2339 -0.5176 -0.553 0.347
000040 1f b7 54 b6 95 30 2d b5 b2 b5 55 31 ac b2 fb a4
       -0.445 -0.3955 0.1432 -0.3235 -0.356 0.1666 -0.2085 -0.01945
000050 8a ab 4d b7 da 33 0d 32 43 b4 f2 b5 d8 b5 57 b0
       -0.0589 -0.4563 0.2454 0.1891 -0.2664 -0.3716 -0.3652 -0.1356
000060 8f b4 f3 2b 4a 34 78 21 6b 36 bd 3a 9d 2a aa b1
       -0.285 0.0621 0.268 0.01068 0.4011 0.8423 0.05167 -0.177
000070 d8 35 86 b2 85 b8 7e b6 02 37 b2 2c 3f 2f 09 ab
       0.3652 -0.2039 -0.565 -0.4058 0.438 0.07336 0.1132 -0.05496
000080 c2 b6 5f 1f 9c b6 f6 b5 bc b4 09 b1 56 b3 b7 b2
       -0.4224 0.0072 -0.413 -0.3726 -0.296 -0.1573 -0.2292 -0.2098
000090 5d b8 37 2e 4d b3 76 31 d6 b5 4a b0 7b 2c fb 34
       -0.5454 0.0971 -0.2281 0.1707 -0.3647 -0.134 0.07 0.3113
0000a0 c5 35 34 2a f0 3b bf b8 d3 32 6d b1 d9 37 b7 2f
       0.3606 0.04846 0.992 -0.5933 0.2133 -0.1696 0.4905 0.12054
0000b0 d5 2f c2 b7 6a 31 03 b9 86 b2 37 b0 7d 3b 01 b6
       0.1224 -0.4849 0.1692 -0.6265 -0.2039 -0.1317 0.936 -0.3752
0000c0 42 3b 1d b0 b3 ac 8b b5 7d 34 7c 33 0b 2e c2 38
       0.907 -0.1285 -0.0734 -0.3464 0.2805 0.2339 0.0944 0.5947
0000d0 83 b9 7a bb be 34 62 b7 5c 38 35 b6 3b b2 27 b3
       -0.689 -0.9346 0.2964 -0.4614 0.545 -0.388 -0.1947 -0.2235
0000e0 46 30 14 b6 40 b6 b0 af 0e 34 af 2a 0b b8 3d 31
       0.1335 -0.38 -0.3906 -0.1201 0.2534 0.05222 -0.5054 0.1637
0000f0 60 32 e0 b2 38 aa f1 a3 a9 2f 9c b6 be b5 db b3
       0.1992 -0.2148 -0.04858 -0.01551 0.1197 -0.413 -0.359 -0.2455
000100 e7 bb 69 3c 52 38 d4 35 b6 36 8c b1 2d 39 81 38
       -0.988 1.103 0.54 0.3643 0.4194 -0.1733 0.647 0.563
000110 49 3c 36 ba f6 32 e7 b8 f4 b7 af 37 01 b4 8b 38
       1.071 -0.7764 0.2175 -0.613 -0.497 0.4802 -0.2502 0.568
000120 bf 2e 18 b3 eb b5 36 30 a6 34 66 b3 6a b5 6e 1e
       0.1054 -0.2217 -0.3699 0.1316 0.2905 -0.2312 -0.3384 0.00628
000130 7c ac 7e b4 79 b0 90 32 03 b2 d1 b3 91 b6 cb b6
       -0.07007 -0.2808 -0.1398 0.2051 -0.1879 -0.2443 -0.4104 -0.4246
000140 91 12 08 b0 e6 34 a3 34 d7 ad e3 a4 a7 b4 9e b9
       0.0008016 -0.126 0.3062 0.2898 -0.09125 -0.01909 -0.2908 -0.702
000150 9d 32 08 b3 15 37 0e ba 3c 39 71 30 27 28 c8 33
       0.2067 -0.2197 0.4426 -0.757 0.6543 0.1388 0.03244 0.2432
000160 d6 b4 92 b2 3a b4 d9 35 53 34 f8 b0 cd b6 9c a1
       -0.3022 -0.2053 -0.2642 0.3655 0.2703 -0.1553 -0.425 -0.010956
000170 61 b3 10 b1 fb 31 11 b5 35 b1 eb 2c f5 ab 80 b6
       -0.2306 -0.1582 0.1869 -0.3167 -0.1627 0.07684 -0.06216 -0.4062
000180 e5 b5 fc 35 88 a8 05 b6 90 b2 c6 ac f1 b6 1f b4
       -0.3684 0.374 -0.0354 -0.3762 -0.2051 -0.0746 -0.4338 -0.2576
000190 78 b3 38 b6 1c b6 1c a4 ce 2f ce b3 90 b5 35 21
       -0.2334 -0.3887 -0.3818 -0.01605 0.12195 -0.2439 -0.3477 0.01017
0001a0 c6 b5 3d b1 91 b3 a8 af 73 34 a9 b7 e5 b4 f9 b0
       -0.3608 -0.1637 -0.2365 -0.1196 0.278 -0.4788 -0.306 -0.1554
0001b0 dc b5 2f b0 5b 2c 10 b5 0f 31 14 33 ec 34 57 b4
       -0.3662 -0.1307 0.06805 -0.3164 0.1581 0.2212 0.3076 -0.2712
0001c0 66 3c 70 ba 7f 32 9a b9 f9 34 75 36 de ae 3c bb
       1.1 -0.8047 0.203 -0.7 0.3108 0.4036 -0.1073 -0.9043
0001d0 28 bc 22 b4 42 30 1b 38 b1 35 03 b8 f5 af 1b b7
       -1.039 -0.2583 0.133 0.513 0.3557 -0.5015 -0.1243 -0.444
0001e0 d8 b6 8e b0 8e 30 b1 b8 56 b8 16 b9 c7 b7 1a b6
       -0.4277 -0.1423 0.1423 -0.5864 -0.542 -0.6357 -0.486 -0.3813
0001f0 33 b9 ac a4 e9 b9 29 af a8 b8 ba ab 79 b3 82 29
       -0.65 -0.01825 -0.739 -0.1119 -0.582 -0.06036 -0.2335 0.04303

dense/Bias f2 [16]
000000 49 af f3 aa 08 ad f7 16 84 b0 a0 a7 a7 2b 76 b3
       -0.11383 -0.0543 -0.0786 0.0017 -0.1411 -0.02979 0.05978 -0.2332
000010 c4 ac 8a a8 e1 33 cc ac 78 a4 23 b0 32 33 01 b5
       -0.07446 -0.03546 0.2462 -0.07495 -0.01746 -0.1293 0.2249 -0.3127

dense_1/Kernel f2 [16, 16]
000000 7a ac 8c 38 e7 35 fa 2d 9c b6 e7 2d 68 2e f7 2f
       -0.06995 0.5684 0.369 0.0934 -0.413 0.0922 0.1001 0.12445
000010 47 b3 49 a8 37 2b 98 34 36 32 d1 b3 f4 37 aa 32
       -0.2274 -0.03348 0.05637 0.287 0.1941 -0.2443 0.497 0.2083
000020 3a b4 c7 ad 02 b5 5c af 5c 32 f0 24 15 32 b0 1c
       -0.2642 -0.0903 -0.313 -0.115 0.1987 0.01929 0.1901 0.004578
000030 54 b1 32 36 fb 35 4b b5 66 a0 cd 33 9f 34 7b ab
       -0.1665 0.3872 0.3738 -0.3308 -0.00859 0.2438 0.2888 -0.05844
000040 06 bd d9 36 ae b0 fe b2 f3 33 ca b9 2c a9 8c 35
       -1.256 0.428 -0.1462 -0.2185 0.2484 -0.7236 -0.0404 0.3467
000050 ad af c9 b3 cd b4 20 b5 c0 2d d8 29 c3 34 cb ab
       -0.11993 -0.2433 -0.3 -0.3203 0.08984 0.04565 0.2976 -0.06088
000060 c2 b4 e7 a9 c2 b1 45 2c 00 39 13 33 c0 34 0f 36
       -0.2974 -0.0461 -0.1799 0.0667 0.625 0.2211 0.2969 0.3787
000070 e2 b7 28 33 44 28 46 ad d9 b1 97 ae ca 38 c4 34
       -0.4927 0.2236 0.03333 -0.0824 -0.1827 -0.10297 0.5986 0.2979
000080 23 30 01 31 c4 b2 80 37 24 31 2c b4 f4 a1 cd 28
       0.1293 0.1564 -0.2114 0.4688 0.1606 -0.2607 -0.01163 0.0375
000090 df 34 2b b6 b7 33 ab 32 fd 34 34 ac eb 34 40 38
       0.3044 -0.3855 0.2411 0.2084 0.3118 -0.0657 0.3074 0.5312
0000a0 46 b4 f8 32 11 b4 cc b8 fc b0 40 37 6c 33 81 aa
       -0.267 0.2178 -0.2542 -0.5996 -0.1558 0.4531 0.2319 -0.0508
0000b0 3f b8 3e b5 62 31 47 b7 51 25 bc 31 66 34 ab a6
       -0.531 -0.3276 0.1682 -0.4548 0.02077 0.1792 0.275 -0.02605
0000c0 bf 3c 64 30 83 b3 b6 b4 5b b6 01 bd ee 30 9a 20
       1.187 0.1372 -0.2347 -0.2944 -0.3972 -1.251 0.154 0.00899
0000d0 ea bd 24 b0 8f 2d 1a 36 e6 b6 6f b0 bd b6 e5 ab
       -1.479 -0.1294 0.08685 0.3813 -0.4312 -0.1385 -0.4211 -0.06168
0000e0 e8 2c 6b 35 78 2f fc 37 0b 21 b9 b6 92 2f 17 b1
       0.07666 0.3386 0.1167 0.499 0.00985 -0.4202 0.1183 -0.159
0000f0 bd b5 12 17 b4 39 7f 36 32 b4 a5 30 8d ae 3c b9
       -0.3586 0.001726 0.713 0.406 -0.2622 0.1451 -0.10236 -0.6543
000100 1e b0 10 38 4c b2 70 b3 82 af e7 37 2e 37 8a ad
       -0.1287 0.508 -0.1968 -0.2324 -0.1173 0.494 0.4487 -0.08655
000110 58 b8 27 31 74 b5 fd a6 35 af 5c 35 b5 35 d1 af
       -0.543 0.161 -0.3408 -0.0273 -0.1126 0.335 0.3567 -0.12213
000120 3d b6 6e 9d 13 b1 0e 34 09 9d fe 10 1d 36 a7 34
       -0.39 -0.005302 -0.1586 0.2534 -0.004917 0.0006094 0.382 0.2908
000130 87 b4 a1 35 7c 35 f7 2d ff ae ec 99 3d 36 6c b4
       -0.283 0.3518 0.3428 0.0932 -0.1093 -0.002892 0.39 -0.2764
000140 43 b3 f8 32 20 35 cb 37 54 25 a2 33 58 32 68 b2
       -0.2269 0.2178 0.3203 0.487 0.02081 0.2385 0.1982 -0.2002
000150 c5 b7 b1 25 97 b3 da 2e 6a b5 de ad bf 34 d8 2e
       -0.4856 0.02223 -0.2372 0.10706 -0.3384 -0.0917 0.2966 0.10693
000160 8b 38 27 b4 49 b3 11 38 2d 1c 0b b9 7b 34 41 2e
       0.568 -0.2595 -0.2277 0.5083 0.004078 -0.6304 0.28 0.0977
000170 a7 ba 68 af 55 3c 2f 2f 5f 28 62 b4 5c 2b 12 b2
       -0.8315 -0.1157 1.083 0.11224 0.03415 -0.274 0.0575 -0.1897
000180 12 b6 37 27 69 ad d2 af a7 37 38 35 93 b4 1f b5
       -0.3794 0.02818 -0.08453 -0.1222 0.4783 0.3262 -0.286 -0.32
000190 f1 27 db 2a 19 a9 a7 b2 12 34 0f b0 0a 38 dd b1
       0.03102 0.05356 -0.03983 -0.2079 0.2544 -0.1268 0.505 -0.1832
0001a0 14 b3 cc ac 6c 30 76 ae 75 9f 50 35 4a 36 c2 37
       -0.2212 -0.07495 0.1382 -0.10095 -0.007282 0.332 0.393 0.4849
0001b0 2d b7 a4 b0 7e b0 c2 31 43 b2 a7 28 19 34 65 2d
       -0.4485 -0.145 -0.1404 0.1799 -0.1957 0.03635 0.256 0.0843
0001c0 7f b9 20 24 3e b1 e3 a8 19 b0 57 34 11 33 c6 31
       -0.687 0.01611 -0.1638 -0.03818 -0.128 0.2712 0.2208 0.1804
0001d0 0b 3b be 27 df 34 f7 35 60 b4 73 b4 7c 30 79 b1
       0.8804 0.03024 0.3044 0.3728 -0.2734 -0.278 0.1401 -0.171
0001e0 35 b3 a6 b1 b9 33 24 28 21 ad 2e 35 cb 34 8f b2
       -0.2252 -0.1765 0.2413 0.03235 -0.08014 0.3237 0.2996 -0.205
0001f0 8d b7 d2 35 00 af 4b b4 61 ad ff b3 5d 35 87 32
       -0.472 0.3638 -0.1094 -0.2683 -0.08405 -0.2499 0.3352 0.204

dense_1/Bias f2 [16]
000000 96 3c 60 31 ae 3c 74 33 53 40 20 ad 7b 2d 34 bc
       1.146 0.168 1.17 0.2329 2.162 -0.0801 0.08563 -1.051
000010 bf b8 b1 b7 14 b8 22 be 10 30 9d bb ae b5 74 b0
       -0.5933 -0.4807 -0.51 -1.533 0.127 -0.9517 -0.355 -0.1392

conv2d_2/Kernel f2 [16, 1, 1, 16]
000000 02 35 e7 b9 2d c0 e1 af fa b4 2e bd 97 c0 21 2c
       0.313 -0.738 -2.088 -0.1231 -0.311 -1.295 -2.295 0.0645
000010 12 b5 60 bc c8 3e 5b b8 87 38 a8 36 43 be b4 29
       -0.317 -1.094 1.695 -0.5444 0.566 0.416 -1.565 0.04456
000020 35 34 41 3c d0 b8 f4 33 8d 36 7c 3c 1d bb 8d 3a
       0.263 1.063 -0.6016 0.2485 0.4094 1.121 -0.889 0.819
000030 b7 b7 33 3e 4c a3 4a b0 cb 38 6c 37 6c bd 81 c3
       -0.4822 1.55 -0.01425 -0.134 0.599 0.4639 -1.355 -3.752
000040 0c be 55 42 b1 b8 99 3b de 3c f5 3c 14 be 1f ba
       -1.512 3.166 -0.5864 0.9497 1.217 1.239 -1.52 -0.765
000050 b3 36 0f 37 49 a7 25 3a e0 ba b8 31 dd b6 f6 b2
       0.4187 0.4412 -0.02846 0.768 -0.8594 0.1787 -0.429 -0.2175
000060 1c 3c d6 b8 e7 39 84 b2 6c b7 f8 c3 f9 36 d8 b1
       1.027 -0.6045 0.738 -0.2036 -0.4639 -3.984 0.4358 -0.1826
000070 25 40 c2 3e 09 44 07 41 cc bc 0b 36 bf 3c a1 b8
       2.072 1.689 4.035 2.514 -1.199 0.3777 1.187 -0.5786
000080 a7 ba b0 bf 42 be 5c ad 59 3c 2f 3e fd c0 fc be
       -0.8315 -1.922 -1.564 -0.08374 1.087 1.546 -2.494 -1.746
000090 c6 37 d2 b3 c8 c0 47 3b 9d bf e4 a7 84 bb 80 b8
       0.4858 -0.2444 -2.39 0.9097 -1.903 -0.03082 -0.9395 -0.5625
0000a0 0f 42 ea 36 a6 2c 31 be c4 b7 4f ba d7 2a 8a b6
       3.03 0.4321 0.07263 -1.548 -0.4854 -0.7886 0.05344 -0.4087
0000b0 71 38 db 34 c2 b9 17 ae 95 25 8f 39 59 30 88 25
       0.555 0.3035 -0.7197 -0.09515 0.0218 0.695 0.1359 0.0216
0000c0 ea 36 4e b8 76 b5 2a b8 68 be 60 bb fe b4 af bb
       0.4321 -0.538 -0.3413 -0.5205 -1.602 -0.922 -0.312 -0.9604
0000d0 4f bc aa 40 77 b4 62 32 ff 34 78 be 9e b1 22 a3
       -1.077 2.332 -0.279 0.1995 0.3123 -1.617 -0.1755 -0.01393
0000e0 2a bc 96 b5 4e b5 57 2b 1f 37 95 c4 8b 3c 2e 34
       -1.041 -0.349 -0.3315 0.05734 0.445 -4.582 1.136 0.2612
0000f0 b9 3d 14 33 54 42 3f c1 a2 42 19 39 b5 bc 48 b0
       1.431 0.2212 3.164 -2.623 3.316 0.637 -1.177 -0.1338
000100 8b 3d 23 37 58 c0 a6 a8 a0 bc 78 3c fb c3 f5 c2
       1.386 0.446 -2.172 -0.03632 -1.156 1.117 -3.99 -3.479
000110 6e 39 7c 3d ef 3c ba 3c ca c6 30 38 ad b0 64 34
       0.6787 1.371 1.233 1.182 -6.79 0.5234 -0.1461 0.2744
000120 cf bd eb 34 f2 b9 22 be d1 3e 4b b8 e9 bb e8 38
       -1.452 0.3074 -0.743 -1.533 1.704 -0.5366 -0.989 0.6133
000130 33 c0 31 3d 36 3e cd 30 8b 38 8f be 74 bc 5e 3d
       -2.1 1.298 1.553 0.15 0.568 -1.64 -1.113 1.342
000140 df bc dd 34 08 b9 f0 2c 00 3b 57 bd 1f bd 28 c2
       -1.218 0.304 -0.629 0.07715 0.875 -1.335 -1.28 -3.078
000150 f1 bc e8 b6 c4 40 12 3e 99 c4 c5 ad 8b 3a ef 31
       -1.235 -0.4316 2.383 1.518 -4.598 -0.09015 0.818 0.1854
000160 8a b0 db b8 16 39 de bf ce bd 18 41 38 3e 42 b9
       -0.1418 -0.607 0.6357 -1.967 -1.451 2.547 1.555 -0.657
000170 48 39 50 bf 7d be 26 ae 0a 39 f9 3a cc 31 dc b9
       0.66 -1.828 -1.622 -0.09607 0.63 0.8716 0.1812 -0.7324
000180 df 39 c9 a4 5a 38 2e bf cf c1 96 c1 a0 3a 4d 3d
       0.734 -0.01869 0.544 -1.795 -2.904 -2.793 0.828 1.325
000190 2e 36 25 40 2d 3d d0 3a eb 3c bc 3a 93 b5 bf 3d
       0.3862 2.072 1.294 0.8516 1.2295 0.842 -0.3484 1.437
0001a0 52 3c 1b 28 37 c2 0e 35 05 bb ed b8 b9 c2 9a b7
       1.08 0.03207 -3.107 0.316 -0.8774 -0.6157 -3.361 -0.475
0001b0 4b 30 72 bd d9 39 9e c0 41 3d 6f b7 bc c2 14 aa
       0.1342 -1.361 0.731 -2.309 1.313 -0.4646 -3.367 -0.0475
0001c0 8f b6 f2 38 23 3a 08 41 1e 40 43 bc 5d 3e 18 34
       -0.41 0.618 0.767 2.516 2.059 -1.065 1.591 0.2559
0001d0 25 36 e2 3b 28 b4 6b 2d 04 3d 53 38 a2 b1 08 3e
       0.384 0.9854 -0.2598 0.08466 1.254 0.5405 -0.176 1.508
0001e0 b2 bc 74 bd 50 bd 06 2c 7c aa f4 39 b3 be 2f b4
       -1.174 -1.363 -1.328 0.06287 -0.05066 0.744 -1.675 -0.2615
0001f0 b1 41 51 41 d2 bf c7 b8 7e 37 2f 41 38 bd fb 39
       2.846 2.658 -1.955 -0.597 0.4683 2.592 -1.305 0.7476

conv2d_2/Bias f2 [16]
000000 31 3f 4c ba a4 c0 43 be de 44 9b b8 99 3b a9 bd
       1.798 -0.787 -2.32 -1.565 4.867 -0.5757 0.9497 -1.415
000010 1c 43 d2 bf 1f 42 94 3f c3 a9 1e 42 3b c4 47 3b
       3.555 -1.955 3.06 1.895 -0.045 3.059 -4.23 0.9097

conv2d_3/Kernel f2 [72, 1, 1, 16]
000000 f1 b2 fa b1 4b 39 f5 38 12 35 83 1a ce b2 06 bd
       -0.2169 -0.1868 0.6616 0.6196 0.317 0.00318 -0.2126 -1.256
000010 fe 35 a6 ae 76 36 9f 31 93 2c 72 b6 d1 2d 16 38
       0.3745 -0.1039 0.4038 0.1757 0.0715 -0.4028 0.0909 0.5107
000020 83 2c 57 ad 2e 34 75 ae ce b3 30 b7 49 ad c2 b0
       0.0705 -0.08344 0.2612 -0.1009 -0.2439 -0.4492 -0.0826 -0.1487
000030 2c 2d 86 2c b7 8f 8b 21 47 b1 35 30 2e b1 ea b9
       0.0808 0.0707 -0.0004709 0.010826 -0.1649 0.1315 -0.1619 -0.7393
000040 4c 28 e5 35 0a 34 58 32 1e b4 22 33 b1 b0 c9 30
       0.03357 0.3684 0.2524 0.1982 -0.2573 0.2229 -0.1466 0.1495
000050 c5 2c 87 ad dd 25 87 37 f1 2a 0a ac 65 b9 da aa
       0.0745 -0.08636 0.0229 0.4705 0.05423 -0.0631 -0.6743 -0.05353
000060 4d b4 a2 ab 09 a3 99 2e 1c b7 97 b0 e7 2b 8e 2d
       -0.2688 -0.05963 -0.01374 0.1031 -0.4443 -0.1434 0.06174 0.0868
000070 38 2d 6e b1 4a 30 9a b0 f7 9d a0 b4 21 a6 85 af
       0.08154 -0.1697 0.134 -0.1438 -0.005825 -0.289 -0.02394 -0.1175
000080 fa 24 26 2d e6 2a d2 ae ac ac a3 a2 01 a8 0e 2c
       0.01944 0.08044 0.0539 -0.10657 -0.073 -0.01296 -0.03128 0.06335
000090 a6 b1 f0 2d f9 b2 6a a5 56 2a c0 2e 8e 2c 8e 25
       -0.1765 0.0928 -0.2179 -0.02115 0.0495 0.10547 0.07117 0.0217
0000a0 64 98 31 a0 80 2e 77 99 30 a6 09 b0 59 a5 5e 2d
       -0.002144 -0.00819 0.10156 -0.002668 -0.02417 -0.1261 -0.02089 0.08386
0000b0 04 a3 32 23 1e 2c 32 10 1f 9e bf 24 de 9c 4f a4
       -0.0137 0.01405 0.06433 0.000512 -0.005978 0.01854 -0.004753 -0.01683
0000c0 66 b4 7d 32 0b 38 69 a5 a9 ae 59 30 b5 31 ad af
       -0.275 0.2028 0.5054 -0.02113 -0.10406 0.1359 0.1783 -0.11993
0000d0 4b 2f 41 30 10 ab eb b3 2e 33 12 aa 78 2e 56 2c
       0.11395 0.1329 -0.05518 -0.2474 0.2244 -0.04742 0.1011 0.06775
0000e0 8c a7 42 b1 1d b1 b7 2b 94 2e dc a9 51 29 29 30
       -0.02948 -0.1643 -0.1598 0.06027 0.1028 -0.04578 0.04153 0.13
0000f0 94 ae 98 2b 8f 2c a7 b0 de ae af 31 76 32 86 a9
       -0.1028 0.05933 0.0712 -0.1454 -0.1073 0.1776 0.2019 -0.04315
000100 aa 34 51 2c 7a 30 96 b4 aa 28 0d 25 35 28 6e 33
       0.2915 0.06744 0.1399 -0.2866 0.03644 0.01973 0.03287 0.2322
000110 70 32 3a 30 0f b1 da b4 5f a1 f6 36 db b1 37 31
       0.2012 0.1321 -0.1581 -0.3032 -0.01049 0.435 -0.183 0.163
000120 a0 28 b6 33 4c ad 79 32 1b b1 4d b1 29 30 29 30
       0.03613 0.241 -0.08276 0.2023 -0.1595 -0.1656 0.13 0.13
000130 ff 2e 82 ac c7 ac 21 34 3e 2d 17 26 03 b5 26 ad
       0.1093 -0.07043 -0.07465 0.258 0.0819 0.02379 -0.3132 -0.08044
000140 fa b2 91 20 69 b5 31 b2 d7 b4 e7 3a 81 2e 8c 32
       -0.218 0.00892 -0.3381 -0.1935 -0.3025 0.863 0.1016 0.2046
000150 95 31 e5 b2 dc b0 81 b5 aa a7 eb 36 4f 2f b5 b8
       0.1744 -0.2155 -0.1519 -0.344 -0.02994 0.4324 0.1142 -0.5884
000160 59 2e 3e 2d 7d b1 39 33 17 b0 2a a5 b3 98 b0 ac
       0.0992 0.0819 -0.1715 0.2257 -0.1278 -0.02017 -0.002295 -0.07324
000170 66 2d e8 2a ed 2d d4 ae a1 2d fb 0f d5 25 61 24
       0.08435 0.05396 0.0926 -0.1067 0.08795 0.000487 0.02278 0.0171
000180 3e b4 a0 c3 6c b9 0c be 25 b7 96 38 85 34 38 be
       -0.2651 -3.812 -0.6777 -1.512 -0.4465 0.573 0.2825 -1.555
000190 02 27 7d 3d e6 35 16 bc d2 3d 59 3a 7c 3f b1 3a
       0.02737 1.372 0.3687 -1.021 1.455 0.7935 1.871 0.8364
0001a0 e7 29 51 b4 36 ac d4 31 21 b2 89 ae a2 2c 15 b7
       0.0461 -0.2698 -0.0658 0.1821 -0.1915 -0.1021 0.0724 -0.4426
0001b0 6c 37 f7 b4 1c 39 4b af 1f b1 6f ba 65 b4 67 32
       0.4639 -0.3103 0.6387 -0.11395 -0.16 -0.804 -0.2747 0.2001
0001c0 9b b0 0c 3a 14 34 25 31 07 b2 e8 9e e9 33 85 35
       -0.1439 0.756 0.255 0.1608 -0.1884 -0.006744 0.2472 0.345
0001d0 7f 2c e8 b6 6a 24 e3 36 5c 35 71 ad 16 bc 0c b4
       0.07025 -0.4316 0.01724 0.4304 0.335 -0.085 -1.021 -0.253
0001e0 1f 2b 05 28 cf af 69 32 70 ac 93 ab 26 a6 6c 32
       0.05563 0.0314 -0.122 0.2003 -0.06934 -0.05917 -0.02402 0.2007
0001f0 21 29 c3 24 ec 31 a5 af 8c 24 c2 23 1b 26 ba ab
       0.04007 0.0186 0.185 -0.11945 0.01776 0.01515 0.02385 -0.06036

conv2d_3/Bias f2 [72]
000000 15 35 2a 3d ae ae eb 3c 6b 3d 1e 3f a5 3e f9 39
       0.3176 1.291 -0.1044 1.2295 1.3545 1.779 1.661 0.7466
000010 dc 3c fa 3b 06 ba bb 3c 57 3a 0d b2 53 aa 6d 3c
       1.215 0.997 -0.753 1.183 0.7925 -0.1891 -0.0494 1.106
000020 49 3f f5 38 12 3c d9 3d 0e 3e 99 33 48 35 fe b2
       1.821 0.6196 1.018 1.462 1.514 0.2374 0.33 -0.2185
000030 fd 3c 43 41 2e 3e df 3d 0c 37 3d 3c 7b b5 3e 3d
       1.247 2.63 1.545 1.468 0.4404 1.06 -0.3425 1.311
000040 cd 3c a7 3c c7 3c 76 3c 42 ba 2c 3c 72 34 1b 3d
       1.2 1.163 1.194 1.115 -0.782 1.043 0.2778 1.276
000050 d3 2b 0c 3d 10 3d e8 3c 1c 3b 46 3d 25 3b c5 3d
       0.06113 1.262 1.266 1.227 0.8887 1.318 0.893 1.442
000060 5f 3c d2 ba 0e bd e5 39 9d 3a 02 3d 69 3d 32 b4
       1.093 -0.8525 -1.264 0.737 0.8267 1.252 1.353 -0.2622
000070 e2 3c a3 3c 1e 3e a9 b3 16 b3 f9 3d 6b 3d 4d 3d
       1.221 1.159 1.529 -0.2394 -0.2214 1.493 1.3545 1.325
000080 05 3b da 3c ee 3c 64 38 e8 3c 98 3f 1d 40 c8 35
       0.8774 1.213 1.232 0.549 1.227 1.898 2.057 0.3613

depthwise_conv2d_1/Kernel f2 [1, 3, 3, 72]
000000 38 31 87 bc 34 23 27 39 53 2b 1d c4 7f a7 72 a9
       0.1631 -1.132 0.01407 0.644 0.05722 -4.113 -0.02928 -0.04254
000010 7b b3 1a 2d 43 35 51 bb 4d b0 b2 b0 3e 39 1c bd
       -0.2338 0.0797 0.3289 -0.9146 -0.1344 -0.1467 0.6553 -1.277
000020 68 2f ff ad 70 c1 8b 33 7d c2 88 ac 12 23 6b 34
       0.1157 -0.0937 -2.719 0.2357 -3.244 -0.0708 0.01381 0.2761
000030 d0 b3 df 2d a6 3a 61 38 f5 b3 14 40 b7 35 e5 bf
       -0.2441 0.09174 0.831 0.5474 -0.2487 2.04 0.3572 -1.974
000040 90 c2 a8 c1 00 bf b1 3c 77 a9 42 34 24 30 b2 ae
       -3.281 -2.828 -1.75 1.173 -0.0427 0.266 0.1294 -0.1046
000050 ec 36 fe 2d ef 2f 9d b9 65 b5 a3 3b 5f b9 c6 bc
       0.4326 0.0936 0.12396 -0.7017 -0.3372 0.9546 -0.6714 -1.193
000060 3c b6 84 38 aa 2e 54 2c 92 b9 15 bc d5 40 33 31
       -0.3896 0.5645 0.1041 0.0676 -0.6963 -1.0205 2.416 0.1625
000070 e9 b8 a9 c0 2e c0 a0 34 f0 2d 41 3d 70 38 c2 c2
       -0.614 -2.33 -2.09 0.289 0.0928 1.313 0.5547 -3.379
000080 f2 b4 82 39 c6 bc a4 af 67 b9 70 ab bc 3a 2a 2c
       -0.309 0.6885 -1.193 -0.1194 -0.6753 -0.0581 0.842 0.06506
000090 0b 32 0d 3a 7f b5 d4 3d 66 3e d7 c5 fa bc 0f 39
       0.1888 0.7563 -0.3435 1.457 1.6 -5.84 -1.244 0.6323
0000a0 ff b4 82 ba 84 38 c4 be a4 af 0d b4 7c ad 27 2d
       -0.3123 -0.8135 0.5645 -1.691 -0.1194 -0.2532 -0.0857 0.0805
0000b0 5f 32 31 ae 33 44 e9 b9 7d 44 86 b4 77 24 54 36
       0.1991 -0.09674 4.2 -0.739 4.49 -0.2827 0.01744 0.3955
0000c0 ff be 00 2f 77 3d 21 24 03 b6 55 c3 59 39 46 c1
       -1.749 0.1094 1.366 0.01613 -0.3757 -3.666 0.6685 -2.637
0000d0 55 c4 5e b8 51 ae f2 b9 fb ad d1 2e 03 36 49 b0
       -4.332 -0.546 -0.0987 -0.743 -0.09344 0.1065 0.3757 -0.1339
0000e0 63 37 89 3f f8 bd e0 3a 6f b8 c2 3a 62 bd 50 b0
       0.4617 1.884 -1.492 0.8594 -0.554 0.8447 -1.346 -0.1348
0000f0 b7 b3 2b 38 39 30 59 3b a0 bd 3d bf f6 ba bc 35
       -0.2411 0.521 0.132 0.9185 -1.406 -1.81 -0.87 0.3584
000100 6b 3e d7 bd 41 39 4c 32 33 3c 7a c0 0c bc 38 44
       1.6045 -1.46 0.6567 0.1968 1.05 -2.238 -1.012 4.22
000110 16 b5 3a c2 bc 3c 34 b4 31 b8 de ac 32 b4 b9 30
       -0.3179 -3.113 1.184 -0.2627 -0.524 -0.07605 -0.2622 0.1476
000120 de 2a bf 37 83 b7 6f 38 11 3e de c1 8f b9 0d bb
       0.05365 0.4841 -0.4695 0.554 1.517 -2.934 -0.695 -0.8813
000130 57 b0 16 37 a6 35 fd ba ce ac 7c ad 7d b9 c8 3c
       -0.1356 0.4429 0.353 -0.8735 -0.0751 -0.0857 -0.686 1.195
000140 d8 2a 48 a9 2d be c4 a8 23 bd 76 b4 96 26 57 33
       0.05347 -0.04126 -1.544 -0.03723 -1.284 -0.2788 0.02573 0.2294
000150 a0 2f 0e 2e fa 3a 9e b5 d3 b0 75 3e 57 35 3f ba
       0.11914 0.0946 0.872 -0.351 -0.1508 1.614 0.3337 -0.781
000160 5f bd 32 32 6b 3f 1a b0 cb a4 56 c0 6b 2d 89 ac
       -1.343 0.1936 1.8545 -0.1282 -0.01872 -2.168 0.08466 -0.07086
000170 ee 30 4d bc 8d 3c 25 31 ca 3b b5 aa fc b8 c8 3a
       0.154 -1.075 1.138 0.1608 0.9736 -0.0524 -0.623 0.8477
000180 83 ad f1 35 f9 2d 56 39 5c ba 95 b9 9e b9 d3 33
       -0.0861 0.3713 0.0933 0.667 -0.795 -0.6978 -0.702 0.2445
000190 e0 ad 80 22 41 3c 62 31 ae 3a 8f 39 85 37 84 bd
       -0.0918 0.012695 1.063 0.1682 0.835 0.695 0.47 -1.379
0001a0 ca 34 1d 40 a0 33 9e ad 13 39 ed a8 06 ae 86 2c
       0.2993 2.057 0.2383 -0.08777 0.6343 -0.03848 -0.0941 0.0707
0001b0 a6 30 99 bd b3 b4 12 bb 30 bd 53 40 05 3c ed b1
       0.1453 -1.399 -0.2937 -0.884 -1.297 2.162 1.005 -0.1852
0001c0 69 b2 ca 3c a7 36 7a b8 d7 b1 23 b2 fe 1f 16 c0
       -0.2003 1.197 0.4158 -0.5596 -0.1825 -0.1918 0.007805 -2.043
0001d0 22 30 d9 ae ba 42 fc b9 dd 40 aa b4 a6 b4 db 32
       0.1292 -0.107 3.363 -0.748 2.432 -0.2915 -0.2905 0.2142
0001e0 f4 3c d5 30 c4 b1 d0 30 08 b6 b0 c1 48 36 8a 2e
       1.238 0.151 -0.1802 0.1504 -0.377 -2.844 0.3926 0.1022
0001f0 59 41 d3 bc 72 bf 17 41 44 ac 6b 9c 4d 33 82 b0
       2.674 -1.206 -1.861 2.545 -0.06665 -0.004314 0.2281 -0.1409

depthwise_conv2d_1/Bias f2 [72]
000000 c7 26 db b2 cc 3f bc a9 9d 33 66 3b 16 b0 34 a9
       0.02647 -0.2142 1.949 -0.0448 0.2379 0.925 -0.1277 -0.04065
000010 78 43 1d b0 da 35 03 b7 a5 40 49 3c 4d b0 01 b0
       3.734 -0.1285 0.3657 -0.4382 2.322 1.071 -0.1344 -0.1251
000020 32 34 23 44 85 a2 60 ad b2 b6 5f 42 28 3f 65 b8
       0.2622 4.137 -0.01273 -0.084 -0.4185 3.186 1.789 -0.5493
000030 31 2e 0e b9 42 b3 d2 b2 87 3f 16 2c c4 ac d3 2d
       0.09674 -0.632 -0.2268 -0.2131 1.882 0.06384 -0.07446 0.091
000040 c3 3e 09 b6 31 ac 3e b4 d2 3f da 2c af 38 ad 41
       1.69 -0.3772 -0.0655 -0.2651 1.955 0.0758 0.5854 2.838
000050 fd 29 70 b4 86 af 44 30 a5 33 89 30 f1 ac 70 aa
       0.04678 -0.2773 -0.11755 0.1333 0.2389 0.1417 -0.0772 -0.0503
000060 d9 40 58 bc 6a 29 67 a8 04 aa c8 a5 c9 34 8f ab
       2.424 -1.086 0.0423 -0.0344 -0.047 -0.02258 0.299 -0.05905
000070 a5 ac b5 b5 6b ae e2 9d 70 a0 1f 2c 5f b4 88 2c
       -0.0726 -0.3567 -0.1003 -0.005745 -0.00867 0.0644 -0.2732 0.0708
000080 9a 9a c5 b4 5d af d5 43 58 aa 26 41 d0 aa 92 2c
       -0.003223 -0.298 -0.11505 3.916 -0.04956 2.574 -0.05322 0.0714

conv2d_4/Kernel f2 [24, 1, 1, 72]
000000 43 ac ad 2d 2c 28 a7 2c 71 2d 00 2d a7 2a bf 21
       -0.0666 0.0887 0.0326 0.0727 0.085 0.0781 0.05197 0.01122
000010 35 ad 27 b0 b8 ac 42 30 37 2f 3d 28 9a af ca ab
       -0.08136 -0.1298 -0.0737 0.133 0.11273 0.0331 -0.1188 -0.06085
000020 96 af 3a 26 38 b3 c1 28 78 b2 00 2f 0d a9 09 2b
       -0.1185 0.02432 -0.2256 0.03714 -0.2021 0.1094 -0.03946 0.05496
000030 c7 27 ae b2 27 27 75 b1 97 1e 06 b3 7a 29 ba 2d
       0.03038 -0.2087 0.02794 -0.1705 0.006435 -0.2195 0.0428 0.0895
000040 e3 29 b1 ab 44 2d e1 21 d8 ac 54 25 07 2a b4 32
       0.046 -0.0601 0.0823 0.01148 -0.0757 0.02081 0.0471 0.2095
000050 0d 25 ff 26 6d a7 72 ae f9 24 62 a8 cf a5 98 28
       0.01973 0.02733 -0.029 -0.1007 0.01942 -0.03424 -0.02269 0.0359
000060 27 a5 02 04 e4 28 b1 2d 77 2b 76 30 58 b2 d6 29
       -0.02013 6.115e-05 0.0382 0.0889 0.05832 0.1394 -0.1982 0.0456
000070 14 22 d6 11 bf a5 42 23 31 a8 17 ac f0 24 e4 b4
       0.01187 0.0007124 -0.02245 0.014175 -0.03275 -0.0639 0.01929 -0.3057
000080 f8 b0 9f b1 c3 ac b8 23 10 b4 30 a8 4c a5 1a a0
       -0.1553 -0.1757 -0.0744 0.015076 -0.254 -0.0327 -0.02069 -0.00801
000090 28 30 c5 28 16 34 4d b0 17 b2 d3 b0 8c ad e2 ae
       0.1299 0.03726 0.2554 -0.1344 -0.1903 -0.1508 -0.0867 -0.10754
0000a0 27 b1 89 b0 cf 2b 6d b2 0b 29 46 a7 90 b0 7f a8
       -0.161 -0.1417 0.061 -0.2008 0.0394 -0.02841 -0.1426 -0.03513
0000b0 3f a4 2d a0 03 a9 c3 18 3e ad 00 2f 1e a7 cd a6
       -0.01659 -0.008156 -0.03915 0.002325 -0.0819 0.1094 -0.0278 -0.02657
0000c0 2e b0 3e ad 98 ad b7 a9 6e 21 10 aa 32 b4 ba af
       -0.1306 -0.0819 -0.0874 -0.04465 0.010605 -0.04736 -0.2622 -0.1207
0000d0 1c ac 81 a8 ee 28 a3 2f a5 2b 3e b3 27 b0 97 24
       -0.0642 -0.0352 0.0385 0.1193 0.05972 -0.2263 -0.1298 0.01793
0000e0 9f 30 8c b0 36 b0 f7 9c 63 ae 2a 2a 91 ab 43 ad
       0.1444 -0.1421 -0.1316 -0.00485 -0.0998 0.04816 -0.0591 -0.0822
0000f0 e7 1f a7 31 3a 2a 41 af 3d ad 17 a8 ae 28 d3 2e
       0.007717 0.1766 0.04865 -0.11334 -0.08185 -0.03195 0.03656 0.1066
000100 c3 b0 22 ad ef 1d 30 9a 1a 16 d0 27 6c ac 20 2c
       -0.1488 -0.0802 0.005795 -0.003021 0.00149 0.03052 -0.0691 0.06445
000110 65 a8 40 30 9a 1e 83 27 90 2c 34 ab 15 20 8b 2a
       -0.03433 0.1328 0.006447 0.02934 0.0713 -0.05627 0.00797 0.05112
000120 cc 9f 2a ac 04 ad 7f a8 f8 ad 3a 2a d3 ac 13 b1
       -0.007614 -0.06506 -0.07837 -0.03513 -0.09326 0.04865 -0.0754 -0.1586
000130 9d 2b 99 b0 29 a7 18 24 22 2d 7e a9 98 b0 be b2
       0.05948 -0.1437 -0.02797 0.01599 0.0802 -0.0429 -0.1436 -0.2107
000140 cd 26 47 b0 b7 b0 1d 2c eb b0 e6 ad 84 b1 61 2d
       0.02657 -0.1337 -0.1473 0.0643 -0.1537 -0.09216 -0.1724 0.08405
000150 e5 b1 a5 31 5e 9c 8a b0 72 34 4e b1 01 29 ac 2d
       -0.1842 0.1764 -0.004265 -0.1418 0.2778 -0.1658 0.0391 0.0886
000160 e8 a0 10 27 2d ad c0 2e 6f aa 10 a6 85 33 fc a9
       -0.00958 0.02759 -0.0809 0.10547 -0.05026 -0.02368 0.235 -0.04675
000170 7c 2c 9e ab a0 ab 43 ae 07 ad a2 29 90 27 db b0
       0.07007 -0.0595 -0.05957 -0.09784 -0.07855 0.044 0.02954 -0.1517
000180 58 a4 cd 32 27 2b ae 9f dc 2c 6b a7 df 18 1d 34
       -0.01697 0.2125 0.05588 -0.0075 0.0759 -0.02898 0.002378 0.257
000190 73 b1 2d 28 17 b3 ab 28 f5 ab c3 ac 1e ae a5 ab
       -0.1703 0.03262 -0.2216 0.03647 -0.06216 -0.0744 -0.0956 -0.05972
0001a0 9e 25 da a8 cc 27 b7 35 5d a7 ff 33 a0 ac 8a aa
       0.02194 -0.0379 0.03046 0.3572 -0.02876 0.2499 -0.07227 -0.0511
0001b0 7d a4 d0 a3 c7 a8 aa 2a 27 1e 29 31 d8 2e 47 a3
       -0.01753 -0.01526 -0.03732 0.05206 0.00601 0.1613 0.10693 -0.01421
0001c0 3b a9 31 2b 51 2d c4 2a 83 b4 4c 28 69 2c 54 32
       -0.04086 0.05618 0.08307 0.05286 -0.282 0.03357 0.0689 0.1978
0001d0 20 2c f9 a7 91 a9 7c 2e a7 aa ef 2c 23 30 1c 2d
       0.06445 -0.03114 -0.0435 0.1013 -0.05197 0.0771 0.1293 0.07983
0001e0 0c 2a 61 2a 18 2a a8 a8 05 27 bc aa bc a4 f6 2e
       0.04724 0.04984 0.0476 -0.03638 0.02742 -0.0526 -0.0185 0.10876
0001f0 28 18 9d ac d6 2a ef a6 57 a8 13 a3 e5 2a b0 28
       0.00203 -0.0721 0.0534 -0.02708 -0.0339 -0.01382 0.05386 0.03662

conv2d_4/Bias f2 [24]
000000 0a 34 1e 3a 78 bb 35 ba 61 c0 5e bd aa bd ab 33
       0.2524 0.7646 -0.9336 -0.776 -2.19 -1.342 -1.416 0.2396
000010 f1 34 ad bb 28 bb 9c bc 6e 36 fb b3 9f 3c e8 b8
       0.3088 -0.9595 -0.8945 -1.152 0.4019 -0.2494 1.155 -0.6133
000020 d2 ae 01 36 ad 3d 49 3c 86 b6 6e 2f 84 b3 17 30
       -0.10657 0.3752 1.419 1.071 -0.4077 0.1161 -0.2349 0.1278

conv2d_5/Kernel f2 [88, 1, 1, 24]
000000 4d 34 3e b4 fc ad ae 2f ae b4 58 b7 13 2d 6a a6
       0.2688 -0.2651 -0.0935 0.12 -0.2925 -0.459 0.0793 -0.02505
000010 dc ae 4f b3 7d 27 97 ab 1d a8 8d b3 7f 2b 47 b1
       -0.1072 -0.2284 0.02925 -0.0593 -0.03214 -0.236 0.05856 -0.1649
000020 bf b0 2b 28 b5 32 16 30 db 34 13 b5 11 ab 2f 31
       -0.1483 0.03256 0.2096 0.1277 0.3035 -0.3171 -0.0552 0.162
000030 f6 ae 9c b4 91 29 34 ad e3 27 0e 30 9a 2b d3 36
       -0.10876 -0.288 0.0435 -0.0813 0.0308 0.1267 0.0594 0.4265
000040 38 36 9a b4 3a af a3 b1 30 1e 7b b0 1a 28 d2 a4
       0.3887 -0.2876 -0.1129 -0.1761 0.006042 -0.14 0.03204 -0.01883
000050 08 b2 45 ad e9 b3 f7 2e 50 ac 14 b2 3b a8 cf ad
       -0.1885 -0.08234 -0.2472 0.1088 -0.0674 -0.19 -0.03305 -0.09076
000060 f5 32 be 24 0f 32 38 b3 18 ac c0 b5 81 21 c2 b6
       0.2174 0.01852 0.1893 -0.2256 -0.06396 -0.3594 0.01075 -0.4224
000070 82 b2 f5 31 4d b5 6e 34 3e 31 96 b0 cc 2c 83 a5
       -0.2034 0.1862 -0.3313 0.2769 0.1638 -0.1433 0.07495 -0.02153
000080 7f b0 72 af 1e aa 06 30 9e 35 8d 27 f5 2f 00 25
       -0.1405 -0.11633 -0.0478 0.1257 0.351 0.0295 0.1243 0.01953
000090 68 b2 2a 38 4e 31 1a b3 01 b1 e0 1d 7c b4 87 a8
       -0.2002 0.5205 0.1658 -0.2219 -0.1564 0.005737 -0.2803 -0.03537
0000a0 d4 33 4c b5 2e 38 ef 35 af b4 c4 a8 bc 39 19 2c
       0.2446 -0.331 0.5225 0.3708 -0.2927 -0.03723 0.717 0.064
0000b0 a9 2d de b3 1c 32 43 aa d0 34 ce 2c 43 b0 22 34
       0.08844 -0.2458 0.1909 -0.04892 0.3008 0.0751 -0.1332 0.2583
0000c0 e8 b0 63 34 7a b1 2c ab ad 30 58 b8 66 b1 b9 af
       -0.1533 0.2742 -0.1711 -0.05603 0.1461 -0.543 -0.1687 -0.12067
0000d0 83 b6 c6 b2 f1 27 6c ad fb b0 6c b2 6c 31 de 2c
       -0.407 -0.2117 0.03102 -0.0847 -0.1556 -0.2007 0.1694 0.07605
0000e0 b8 34 4f 32 8f 32 cd ac ec b0 c3 ad 80 32 eb ac
       0.295 0.1971 0.205 -0.075 -0.1538 -0.09 0.2031 -0.07684
0000f0 7f 2f 16 40 10 b5 32 3c 6e b9 1a c0 95 3c ca b9
       0.1171 2.043 -0.3164 1.049 -0.6787 -2.05 1.1455 -0.7236
000100 78 ba 5b bc c0 3a f1 32 b0 bc d7 36 10 32 27 39
       -0.8086 -1.089 0.8438 0.2169 -1.172 0.4275 0.1895 0.644
000110 a4 38 e0 38 a9 bd b4 ae 49 27 ad b1 02 40 21 9e
       0.58 0.6094 -1.415 -0.10474 0.02846 -0.1774 2.004 -0.005985
000120 fa ad 86 b1 d5 31 5d b3 2e ad 36 20 1a b5 3e 34
       -0.0934 -0.1726 0.1823 -0.2301 -0.08093 0.008224 -0.3188 0.2651
000130 8c 32 b6 26 5d 37 7c b5 cd a8 9d 2f 3e 33 57 b4
       0.2046 0.02621 0.4602 -0.3428 -0.0375 0.11896 0.2263 -0.2712
000140 73 28 8a ad 9d 34 0c a9 b8 36 ec 30 30 b5 f0 36
       0.03476 -0.08655 0.2883 -0.03943 0.42 0.1538 -0.3242 0.4336
000150 fa 30 e5 b0 38 31 ce 22 7c 29 4f 2f 3e 33 3a 39
       0.1555 -0.153 0.1631 0.01329 0.04285 0.1142 0.2263 0.6533
000160 a5 31 96 ad f7 1c 44 b4 6f 2f 77 32 6e 9c c6 aa
       0.1764 -0.0873 0.00485 -0.2666 0.11615 0.202 -0.004326 -0.05292
000170 4a b2 06 ac 9e a7 9f 31 6d 15 79 21 07 39 0a 2c
       -0.1965 -0.06287 -0.02975 0.1757 0.001325 0.01069 0.6284 0.0631
000180 be 3d e0 35 11 28 68 b4 46 b4 99 b7 43 af 6f ba
       1.436 0.3672 0.03177 -0.2754 -0.267 -0.4749 -0.11346 -0.804
000190 10 b3 ce b7 8b b5 05 35 e6 29 ba 31 4d 37 2c ba
       -0.2207 -0.4878 -0.3464 0.3137 0.04608 0.179 0.4563 -0.7715
0001a0 82 31 93 b5 26 34 ca 33 5b bb 7c 34 24 b5 34 39
       0.1721 -0.3484 0.2593 0.2434 -0.9194 0.2803 -0.3213 0.6504
0001b0 8e ac 0a bb 26 b5 c9 33 4e 34 51 37 d9 a8 88 38
       -0.07117 -0.88 -0.3218 0.2433 0.269 0.4573 -0.03787 0.5664
0001c0 9a ae 54 b0 ab 28 9d b8 df 31 f7 27 6d b2 98 b1
       -0.10315 -0.1353 0.03647 -0.5767 0.1835 0.03111 -0.2008 -0.1748
0001d0 ec ae ea 35 fe b4 85 26 d7 31 0b b8 dd 36 18 b2
       -0.10815 0.3696 -0.312 0.02547 0.1825 -0.5054 0.429 -0.1904
0001e0 93 af cc 29 b2 af a4 ad 82 31 54 35 3d a8 da b1
       -0.11835 0.0453 -0.12024 -0.08813 0.1721 0.333 -0.0331 -0.1829
0001f0 50 13 67 2a 90 a9 ed 2d ba ab 03 b0 ba 33 31 b4
       0.0008926 0.05002 -0.04346 0.0926 -0.06036 -0.1254 0.2415 -0.262

conv2d_5/Bias f2 [88]
000000 0b 3c 01 3c 4f 3b 9b b4 d6 3a 39 40 89 37 46 37
       1.011 1.001 0.9136 -0.2878 0.8545 2.111 0.471 0.4546
000010 72 b4 e1 30 68 3b ef 36 f7 3c a0 3c 79 3c 0c 3b
       -0.2778 0.1525 0.926 0.4333 1.241 1.156 1.118 0.881
000020 50 3d e7 3e da 3b 57 3c cd 3c 5f ad 6c 3c 8e b8
       1.328 1.726 0.9814 1.085 1.2 -0.0839 1.105 -0.5693
000030 7d 36 0c 3a 4e 39 a6 3c 7e 3a 72 3d 90 3b 1e 34
       0.4055 0.756 0.663 1.162 0.8115 1.361 0.9453 0.2573
000040 1b 3d a2 34 88 b3 9d 34 67 38 f0 b4 8f b8 14 39
       1.276 0.2896 -0.2354 0.2883 0.5503 -0.3086 -0.57 0.635
000050 d5 3c 0e 3c fa 3c 71 3c 56 39 b6 38 52 3c f0 b6
       1.208 1.014 1.244 1.11 0.667 0.589 1.08 -0.4336
000060 21 38 99 3c a5 34 28 3c 21 24 ad 30 64 39 59 b2
       0.516 1.149 0.2903 1.039 0.01613 0.1461 0.674 -0.1984
000070 99 34 1e 3c ea 39 e6 3c a8 39 31 3c 52 37 83 36
       0.2874 1.029 0.7393 1.225 0.707 1.048 0.4575 0.407
000080 05 3e c1 3a a0 3b 52 3c 60 3b 40 b9 ac 38 ae 2b
       1.505 0.844 0.953 1.08 0.922 -0.6562 0.584 0.06
000090 56 b9 27 39 99 34 94 3c 99 3a e8 3c 1b 3b 38 3a
       -0.667 0.644 0.2874 1.145 0.8247 1.227 0.888 0.7773
0000a0 00 3c 45 b2 43 3b 70 3c cd b0 ad 3a ed 38 ae 2a
       1.0 -0.1959 0.9077 1.109 -0.15 0.8345 0.6157 0.0522

depthwise_conv2d_2/Kernel f2 [1, 3, 3, 88]
000000 68 31 99 b8 71 33 e5 29 55 38 4c ac 6c 2e d3 b0
       0.169 -0.5747 0.2325 0.04605 0.5415 -0.06714 0.10034 -0.1508
000010 d8 b3 37 b3 f4 2d 16 b6 c1 36 ef b3 2f 35 17 37
       -0.2451 -0.2255 0.093 -0.3804 0.422 -0.2479 0.324 0.443
000020 69 26 ad b0 45 34 10 35 87 34 65 2a 67 3c ed 2d
       0.02504 -0.1461 0.2668 0.3164 0.283 0.04996 1.101 0.0926
000030 ed 2d b8 32 55 b4 3d 34 1c b7 84 34 94 b1 90 b0
       0.0926 0.21 -0.2708 0.265 -0.4443 0.2822 -0.1743 -0.1426
000040 af b6 bd b5 61 24 c8 af e5 36 97 3a 0c ab ba b2
       -0.4177 -0.3586 0.0171 -0.1216 0.431 0.8237 -0.05505 -0.2102
000050 81 35 46 31 4d b1 75 37 19 37 9f b1 54 b6 1b b3
       0.344 0.1648 -0.1656 0.466 0.4436 -0.1757 -0.3955 -0.222
000060 71 b8 ea b4 59 b6 f0 24 67 2f c0 31 ce ad 86 bb
       -0.555 -0.3071 -0.3967 0.01929 0.11566 0.1797 -0.0907 -0.9404
000070 69 34 0b b2 36 34 8a 2c 05 af f4 3f d3 b0 40 b5
       0.2756 -0.1888 0.2632 0.0709 -0.1097 1.988 -0.1508 -0.3281
000080 f1 ae f4 2d b1 a9 72 1d a5 38 ad ae 23 b6 d3 b8
       -0.10846 0.093 -0.04446 0.005318 0.5806 -0.1043 -0.3835 -0.603
000090 1c b7 45 b8 a2 b6 62 bc c9 2c 48 b3 83 b3 27 36
       -0.4443 -0.5337 -0.4146 -1.096 0.07477 -0.2275 -0.2347 0.3845
0000a0 4e 21 1a b6 2f ba fa 30 3e 26 96 bb 85 b0 81 38
       0.01036 -0.3813 -0.773 0.1555 0.02438 -0.948 -0.1412 0.563
0000b0 fb 30 8a 3d 07 bc be 36 08 3c 3c 37 8d b8 65 b8
       0.1556 1.385 -1.007 0.4214 1.008 0.4521 -0.569 -0.5493
0000c0 8c 34 e9 a5 b0 b8 7b b5 9f 2c d4 b7 63 41 ca ae
       0.2842 -0.02309 -0.586 -0.3425 0.0722 -0.4893 2.693 -0.1061
0000d0 96 38 80 40 38 c0 f5 c1 ef 43 1e 34 7c 3b f6 b1
       0.573 2.25 -2.11 -2.979 3.967 0.2573 0.9355 -0.1863
0000e0 ff 34 74 b9 68 2c 05 2f 1a b4 9c c0 60 b1 cd b4
       0.3123 -0.6816 0.06885 0.1097 -0.2563 -2.305 -0.168 -0.3
0000f0 40 b0 b3 b8 43 38 6a b4 50 ae 53 bd d5 a1 fd 2f
       -0.1328 -0.5874 0.5327 -0.276 -0.09863 -1.331 -0.01139 0.1248
000100 06 bb 7d 40 0e 2e 4f 9f 72 3f bd 24 b4 bc d3 33
       -0.878 2.244 0.0946 -0.007137 1.861 0.01851 -1.176 0.2445
000110 62 37 ba 3a 62 39 67 40 87 37 b2 37 f4 b0 ae 3a
       0.4614 0.841 0.673 2.201 0.4705 0.481 -0.1548 0.835
000120 19 3a b9 b4 d7 be 66 2a ac b8 a6 bd 29 b0 f7 be
       0.762 -0.2952 -1.71 0.05 -0.584 -1.412 -0.13 -1.741
000130 1f b2 7e 3a 2d b5 18 35 9c bf 33 b4 2c 31 93 3b
       -0.1913 0.8115 -0.3235 0.3184 -1.902 -0.2625 0.1616 0.947
000140 d0 3b dd b7 54 3c e7 bd 0f 38 44 2f 8e 3e f8 b6
       0.9766 -0.4915 1.082 -1.476 0.5073 0.1135 1.639 -0.4355
000150 f8 42 43 ab d6 3d c8 bc c6 32 4a 3a 32 34 f1 b1
       3.484 -0.05673 1.459 -1.195 0.2117 0.786 0.2622 -0.1857
000160 bb b1 22 b5 cb 29 00 b2 50 37 1c b4 5c b6 e1 25
       -0.1791 -0.3208 0.04526 -0.1875 0.457 -0.2568 -0.3975 0.02296
000170 56 b4 35 b1 49 ad dc 38 ae b5 56 b3 6b 34 61 b1
       -0.271 -0.1627 -0.0826 0.6074 -0.355 -0.2292 0.2761 -0.1681
000180 8f 3c 23 20 96 2e 97 33 11 2f 3d 2f 8d 33 bc 2e
       1.14 0.00808 0.1029 0.2372 0.1104 0.1131 0.236 0.1052
000190 42 b4 c2 b4 aa 33 93 b4 83 34 fe 38 c9 af 87 b1
       -0.266 -0.2974 0.2395 -0.286 0.282 0.624 -0.12164 -0.1727
0001a0 e7 38 50 b1 40 1e 6b ad 09 ad d7 ad 3f 2d 5f 33
       0.613 -0.166 0.006104 -0.08466 -0.0787 -0.09125 0.082 0.2303
0001b0 96 33 94 af 12 31 f8 b4 d8 9f d2 b2 1e ac ba 38
       0.237 -0.1184 0.1584 -0.3105 -0.00766 -0.2131 -0.06433 0.591
0001c0 4b 35 42 b6 9d 33 c4 af 7b 28 e9 a0 86 34 95 2f
       0.3308 -0.391 0.2379 -0.12134 0.035 -0.00959 0.2827 0.11847
0001d0 26 af 64 38 27 2d 5b 24 d5 29 e9 b3 9b b0 67 32
       -0.1117 0.549 0.0805 0.01701 0.04556 -0.2472 -0.1439 0.2001
0001e0 5f 2f 89 ac f4 a6 2d 38 02 a9 98 31 63 3a cc ab
       0.1152 -0.07086 -0.02716 0.522 -0.03912 0.1748 0.7983 -0.0609
0001f0 6d b1 93 ad 79 b7 0c bb 52 31 1a 2e 9c bb a5 ad
       -0.1696 -0.0871 -0.467 -0.881 0.1663 0.09534 -0.951 -0.0882

depthwise_conv2d_2/Bias f2 [88]
000000 d6 1b 22 3e 48 b5 13 b8 40 2d a1 1c 66 b2 a7 3e
       0.003826 1.533 -0.33 -0.5093 0.08203 0.00452 -0.2 1.663
000010 ba b8 e3 3c 0c 41 4f 3a a8 29 8b 3f 52 37 8d 28
       -0.591 1.222 2.523 0.7886 0.0442 1.886 0.4575 0.03555
000020 b8 b5 d1 aa 4b b0 7e a4 0e b3 53 bf e3 b9 61 36
       -0.3574 -0.05325 -0.1342 -0.01755 -0.2205 -1.831 -0.736 0.3987
000030 d7 b9 44 3e 17 41 f8 2a c9 40 2f 38 e7 3f ae b7
       -0.73 1.566 2.545 0.05444 2.393 0.523 1.976 -0.48
000040 8c ad 92 3c 31 ba 9e 3c d0 b8 95 a5 8b b4 be 21
       -0.0867 1.143 -0.774 1.154 -0.6016 -0.0218 -0.284 0.011215
000050 df 3d c9 af 93 92 21 27 9b b2 97 3b 8f 40 64 2d
       1.468 -0.12164 -0.0008025 0.02785 -0.2064 0.9487 2.28 0.0842
000060 c8 b8 82 c6 4b bf 94 b4 56 3c ec bb 69 39 a2 9f
       -0.5977 -6.508 -1.823 -0.2861 1.084 -0.99 0.6763 -0.007454
000070 5d c0 17 ad 02 b9 20 b9 c2 9d f1 2f 71 bd e6 40
       -2.182 -0.0795 -0.626 -0.6406 -0.005623 0.1241 -1.36 2.45
000080 6e 40 d6 2f 9b 3d e3 2f 8a 3f 52 b9 e9 a8 88 2f
       2.215 0.12244 1.401 0.1232 1.885 -0.665 -0.03836 0.1177
000090 f3 2b ee 39 a7 a8 c5 3c aa b7 c0 ad 12 30 8b 3c
       0.0621 0.741 -0.03635 1.192 -0.479 -0.08984 0.1272 1.136
0000a0 22 ae c3 3f c4 2d f2 3d 78 b8 6b 31 4a a7 59 42
       -0.0958 1.94 0.0901 1.486 -0.5586 0.1693 -0.02847 3.174
